results/Noisy2D2/NLPD (Artificial Kernel).npy (npy, 3328 bytes, 1 tensors)

array f8 [50, 8]
0	0x407080643567326f	264.0244649916776
1	0x400dd0444354d670	3.7266927013650317
2	0x4041b85f34f3800d	35.44040548219355
3	0xc045edea621c76ce	-43.85871530904625
4	0x4066f4c25cf25281	183.64872596100398
5	0x40778c08db6f51e8	376.7521623943744
6	0x40851e5316620ba7	675.790570035916
7	0x4085674b99f41f43	684.9119147369423
8	0x408047e53e070c98	520.9869347143858
9	0x407491fc56027fff	329.1241054628044
10	0x406c2a6b94f55620	225.32563255231162
11	0x4034f785cbba1014	20.966885312009325
12	0xc06282afd1abf7b7	-148.08396228396825
13	0xc070fbd76b72caf8	-271.74009270516353
14	0xc072e05fb4d13427	-302.02336580009654
15	0xc0728bc1f9b5e6dc	-296.7348572831668
16	0x4071d06518756377	285.02468152861496
17	0x4060e0c5a0475c75	135.02412427842833
18	0x401454f58bd61f58	5.08296793455505
19	0xc04b0163465545c6	-54.01084212459277
20	0xc0682b74f424e127	-193.35802657321003
21	0xc0727de14fd20229	-295.8675077632384
22	0xc0727d27490ed1fd	-295.8220911578099
23	0xc072530dd42246d4	-293.19087613477063
24	0x407cfb34b730cf4e	463.7003700167305
25	0x4074c75c05e354b6	332.4599665527452
26	0x4068ff8d9cce5a8d	199.98603668502292
27	0x405915f9b2add6a0	100.34336535431294
28	0xc0672407461ee7d4	-185.1258879283547
29	0xc072b97753b8ed5d	-299.59163257825077
30	0xc06e312a00cfa384	-241.53637733988228
31	0xc06c849fd3a87b7b	-228.1445101061507
32	0x407ba49cc4fe84ad	442.28827380582044
33	0x4073ed6f31336af6	318.8396465309628
34	0x406b784070571694	219.75786606797612
35	0x4055758a9735157c	85.8365839022062
36	0xc05979edf9dc19b0	-101.90514990324186
37	0xc0719331145e832a	-281.1994823161973
38	0xc0744cc3c9f54b9d	-324.79780002420904
39	0xc0741ca8b7d37f50	-321.7911909352888
40	0x408499bd986fdc80	659.217575906674
41	0x407f929a1f2ee2b8	505.16262739481635
42	0xc0717342bcf9b09c	-279.2037935021888
43	0xc07a9914450ead2d	-425.56744867070194
44	0xc04f39709a392b50	-62.44874885360207
45	0x406f3d0c79be7bd0	249.90777289584958
46	0x407df780600f5848	479.4688416098984
47	0x407e5c75fcebd9e6	485.7788056576668
48	0x40785d61e5dcfeec	389.8364008553169
49	0x40708fd72224a2d0	264.99002279578144
50	0x405569a9b74dcf44	85.65098364447209
51	0x405d16c25275efb4	116.35561048047276
52	0x4078cf701aef5bbc	396.9648694372115
53	0x408e7e2025a0f31f	975.7656967710681
54	0x4097991b1c80e049	1510.2764759194272
55	0x4097efb4324cedb0	1531.9259731311868
56	0x4072318d3cb1b77f	291.0969817106306
57	0x40599c886a121a00	102.44582607047778
58	0x403d28c6eef53055	29.159285483227297
59	0xc02036a806e6bd10	-8.106750693956684
60	0x407aa664da9599e9	426.3996225208089
61	0x4097152138ad6d4c	1477.2824427698097
62	0x409df69ea448d992	1917.6549235708994
63	0x409e52ab9e6ea94d	1940.6675965586503
64	0x4071ccee2d0350e9	284.8081483964475
65	0x405bf0866aa8fff0	111.75820414070017
66	0xc042624b3227f032	-36.767919797421555
67	0xc062eb3ef9474d82	-151.35143722463914
68	0xc0749e0ea8913045	-329.87857872690466
69	0xc078c11cdbfd6d0d	-396.06954573626064
70	0xc079b9361d91dd47	-411.5757117936923
71	0xc079ebc991c0f2f3	-414.736711267192
72	0x407369faa89a3d6c	310.62369594812367
73	0x406430e9297e0986	161.52846216789857
74	0x40582b0c95e1654a	96.67264315615935
75	0xc05e50466fb38968	-121.2542990926064
76	0xc0727ec1ca7f21b4	-295.9223122564392
77	0xc073293945f2218e	-306.57648272116137
78	0xc0723b92561471b1	-291.72322662340144
79	0xc0722140b1bc8845	-290.07829450269156
80	0x409c45c4d818ccae	1809.4422305941512
81	0x40a9d4334751c0fc	3306.100153498466
82	0x40b745f83556f74c	5957.969563899398
83	0x40bd12b124073fc1	7442.691955998483
84	0x40c115ebca7d5cd2	8747.842116995165
85	0x40c28f2f83bcf004	9502.371207825847
86	0x40c2a69054c0948b	9549.127586433917
87	0x40c2b4963ed243f6	9577.173792155441
88	0x407da120c6e42745	474.0705021774523
89	0x4081a6094c554b79	564.754540125242
90	0x407f264f38ec8a30	498.3943413963161
91	0x40808b8fed2384cc	529.4452765250112
92	0x4082746504a8e0a3	590.5493252938799
93	0x4087d06b7374996a	762.0524663075751
94	0x408bb315cd8ef3af	886.3856459777943
95	0x408c40d92d08c02b	904.106042927136
96	0x4078cac251a13e9a	396.67244112955234
97	0x406fab1cf0a7f163	253.34728272248603
98	0x4074729cdf11d069	327.16329867323526
99	0x407092f05df2fcce	265.18368334691047
100	0x407f7f20d61a5d78	503.9455166845214
101	0x408599ea888ba3cc	691.2395182523119
102	0x4087bf2fcb080138	759.8983364701626
103	0x408817ac10680440	770.9590156675622
104	0x406d434e04149bfd	234.1032734301115
105	0x405da9cbd7d088bd	118.6530665909258
106	0xc048cc09458dce28	-49.59403294967734
107	0xc063b796d0d959b9	-157.73716013385072
108	0xc073d797a16a1ac2	-317.4745191712101
109	0xc07107a0bbc8c906	-272.4767415850805
110	0xc070ef4f46423773	-270.9568541132532
111	0xc070e48c7310f38c	-270.2842894231951
112	0x4070d33b17ad1cee	269.2019268762805
113	0x406674c2e3327f60	179.64878997671894
114	0x40611b0402d21f1c	136.84423962630615
115	0x405aff0ee60051c9	107.98528432875823
116	0xc0422752b6d8a158	-36.30721173837327
117	0xc056aa4256e9e066	-90.66029904212482
118	0xc057f8553db66345	-95.88020270167642
119	0xc056f9b79437d758	-91.90182977154961
120	0x408cb3d10d32accf	918.4770759543406
121	0x4092cb05814eef03	1202.7553760846502
122	0x40a086b614cef7f4	2115.3556275060346
123	0x40a1ca23336ed644	2277.0687517773204
124	0x40a0742be9de44ec	2106.085768648065
125	0x40a004acaf557912	2050.337275191335
126	0x409ffe41eea9fc81	2047.5643869934431
127	0x40a0086c098d1ea4	2052.2110103702453
128	0x4065403884ca568e	170.00689925688897
129	0x4053d1ee444c8e22	79.28016765094847
130	0xc063eff3b47cdb63	-159.49849914919022
131	0xc077751527dc7f53	-375.31766496784
132	0xc08213a7fa1ef812	-578.4570200366454
133	0xc082b4bd7dc722ad	-598.5925250585038
134	0xc082f2848a12f108	-606.3147164802367
135	0xc0831a4388386ad1	-611.2829746635053
136	0x4043013b3a2fdbb2	38.00961997353387
137	0xc01e38a6c2c769e0	-7.555323642178763
138	0xc0123f5f54bda1e0	-4.561887096475829
139	0xc063735916003ee2	-155.6046247486875
140	0xc06c183b6a2ea202	-224.7572527800367
141	0xc075a599a18e3980	-346.3500075870179
142	0xc075bb8c555299b9	-347.72176105752766
143	0xc075904beac09352	-345.01853442406457
144	0x406dd127be1a21db	238.53610138992266
145	0x4081bdd15bc5d068	567.7272258238054
146	0x408628beef510958	709.0932298975922
147	0x4090697a4e9c28f9	1050.3694404983528
148	0x40a0de9f064afdaf	2159.3105948862717
149	0x40a9848f469a2a47	3266.2798355270966
150	0x40b06cbcb49e0def	4204.737131002809
151	0x40b082c2f7be9f9a	4226.761592782941
152	0x4081e19225da03a1	572.1963612587316
153	0x407ad228f3b12a5e	429.1349980278518
154	0x40753f19c2a958f1	339.9437891593107
155	0x4071691bd7c29583	278.569297561735
156	0x4060fe234de31d43	135.94180960043204
157	0x40424e5af1e6add3	36.61215041888831
158	0xc04bfda71d4a9973	-55.98166242735433
159	0xc051698ed56d3662	-69.64934287705685
160	0x408c96d3418df51f	914.853152379077
161	0x40852614accdb612	676.7600952216328
162	0x406d357bff4c6c77	233.67138638426306
163	0x407c31d92f9b7b91	451.115523917536
164	0x4098d3fb430526bf	1588.995372848978
165	0x40a19bc28d4eeb96	2253.879984346636
166	0x40a37ce4e4d05b62	2494.4470582114745
167	0x40a3a49c208be9ce	2514.3049358103663
168	0x406ca8669c714a34	229.26252576949048
169	0x4042e22932930a08	37.76688224963806
170	0xc043cbe11fa90708	-39.59280772927565
171	0xc069729964598cb6	-203.58122460832755
172	0xc07b0dac13c39969	-432.85451103597603
173	0xc07ca6c157d7f506	-458.4222029147935
174	0xc07a362ea2d1638a	-419.3863857440234
175	0xc07a19559baa415c	-417.5834004068945
176	0x408c9edb8f098952	915.8572064156563
177	0x408557665976e348	682.9249753273116
178	0x408e28293c3ccf02	965.0201344252275
179	0x40939880498d3bec	1254.125280577452
180	0x4095086833ea9756	1346.1017605452412
181	0x40957db584bf358a	1375.4272642017772
182	0x40964cdea2e71397	1427.2174182992655
183	0x4096760f8c342634	1437.5151832722013
184	0x4078ddd15cdced19	397.8636139516762
185	0x407071365f739268	263.07577462334893
186	0x4063ea0b552f52e6	159.31388339274343
187	0x4051815924868dd3	70.02106583728828
188	0xc0318a176c479504	-17.539419906116578
189	0xc05518a7d0aece64	-84.38524262495918
190	0xc04f914654d89b8a	-63.134958844914834
191	0xc04daee831699ff6	-59.36646096856559
192	0x407c0dce8c73a4c6	448.86292691396045
193	0x4030166c80871a0e	16.087593110069115
194	0xc04a8b6e3be2a4d8	-53.08930157248113
195	0xc071e04256a3df48	-286.0161959077127
196	0x407363eefa351395	310.24584408505444
197	0x4093e02039e87652	1272.0314709017007
198	0x4096c514a5755648	1457.270162423507
199	0x4096e7db11da4424	1465.963935289773
200	0x40730c96c62af0ac	304.7868100812291
201	0x403ebb295cf67980	30.731099901365724
202	0xc05695ab1a482b90	-90.33856827781551
203	0xc06f9ce2d7ab3675	-252.90269072952256
204	0xc07902ebb740ce18	-400.18254781069254
205	0xc07dcc7c47387bd2	-476.78034135879454
206	0xc074140479bfabc0	-321.251092671122
207	0xc073a0fa4ac9de1e	-314.061106480165
208	0x407827b3d13de806	386.4814007204262
209	0x406c6d95002b8918	227.42443855765373
210	0x4043fbc09f587fbd	39.966815870487586
211	0x407974e2589da457	407.3052602918519
212	0x408c9ade1750e7c2	915.35844290931
213	0x409dd34ca4cf702d	1908.8248474514214
214	0x40a36edf1ca14c22	2487.435765305084
215	0x40a3870fc06a6925	2499.5307648900366
216	0x408558a3320c1096	683.0796853010713
217	0x407028fe5992e37e	258.562097142967
218	0x405b3acd1977fbb2	108.91876827923878
219	0x40720a51c3c86520	288.6449621036463
220	0x40909954b4054c1c	1062.3327179744438
221	0x40a51ddb4a15f1a8	2702.9282996041766
222	0x40af826536738437	4033.1976810549636
223	0x40b00cfa94e0d492	4108.978834201715
224	0x4069c208dc8c5680	206.0635817280745
225	0x404bfdd2a74ee4fb	55.9829911360957
226	0xc05c079e0820a5bb	-112.11902049244138
227	0xc0769f33bad6b044	-361.950129355075
228	0xc07935696bad09e4	-403.338237453396
229	0xc07a63fdae4f35bf	-422.2494338125361
230	0xc07bdcb7b1a4b7d6	-445.7948471483518
231	0xc07a73302c7e3cca	-423.1992611819411
232	0x407332af0e23442c	307.1677380921926
233	0x406fc15f869868f7	254.04291085975248
234	0x405799747cef520c	94.39773486491339
235	0x400f932c841d06c0	3.946862251411261
236	0xc060a1aac118a248	-133.05209402858077
237	0xc04e3b6d60306e34	-60.46427538265962
238	0xc01d77aa0e7a8140	-7.366859651782136
239	0xc01a552a979f7560	-6.583170289142203
240	0x406ffe7a95d62d4a	255.95246402579716
241	0x406d93d4da4f78b0	236.61973300477757
242	0x405d90d1dd647a9e	118.26280913174057
243	0x406a92066efb697a	212.56328534225378
244	0x40941aa8c1151537	1286.6647990507315
245	0x40982d92067f3374	1547.392602908626
246	0x40a715b82d1333c2	2954.8597188950234
247	0x40a76d842fdb147a	2998.7581776106354
248	0x406f0e49a41c0d2d	248.44648938635638
249	0x407a5a61b667ad71	421.6488555955794
250	0x4074f8950e8a9089	335.53639082075875
251	0x407309e4611dac46	304.618256679449
252	0x4067ba89982e1b34	189.82929619794015
253	0x406429911c4f56f0	161.29896369453445
254	0x4062a388ed06e686	149.11046458575964
255	0x40630446fa6f6273	152.13366433863447
