results/Noisy2D2/Optimum MLL (Artificial Kernel).npy (npy, 3328 bytes, 1 tensors)

array f8 [50, 8]
0	0x4063de200fac4fb6	158.9414137235123
1	0x40690f10a64c4c82	200.47078242208596
2	0x406cc90473075084	230.28179313114754
3	0x406fedbf6d736432	255.42961761987095
4	0x40708cdbbbd48c1e	264.8036459257727
5	0x4069bbc979ae33da	205.86834415458617
6	0xc04fa63e41a30fb8	-63.29877491437895
7	0xc07fe90cf22d2497	-510.5656606448551
8	0x40687693df6e7357	195.70555087635395
9	0x406f5c620279d210	250.88696407120779
10	0x407243bf63fdf9ba	292.23422621926477
11	0x4074aebc98afe57e	330.92104405126145
12	0x407840a079052d6b	388.03917791387966
13	0x40790049212fbc40	400.0178539147055
14	0x4075465566fd0f2c	340.3958501706245
15	0x4055c8e83edc4915	87.13917514335874
16	0x40632b64c2e29222	153.35604995967975
17	0x40674857d9a6dafe	186.2607239016433
18	0x406bc9604ebbe64e	222.29300629328867
19	0x406e40b14e7ca369	242.0216438707678
20	0x406f2c2359157bb4	249.3793149394602
21	0x40681a762548c876	192.82692207541885
22	0xc03a462e3bb4ce98	-26.27414296306833
23	0xc073ef3bbc07a6a9	-318.95208361614874
24	0x4068494065632e3f	194.28911084529133
25	0x406e8b0074f620ee	244.34380577156065
26	0x407233f87d588abc	291.24816641413395
27	0x4074828bc30e747b	328.1591215672158
28	0x40789f1e21b603a2	393.94485636805814
29	0x4079b168950d6191	411.0880327723217
30	0x4074a3f48062bf46	330.24719275067434
31	0x403575efc3eec5a4	21.460689779085115
32	0x406a0f122c3cd2c9	208.47096835975233
33	0x407050cddd0f2062	261.0502596464995
34	0x407311051ac8663e	305.0637462452031
35	0x4075bcf9e426820c	347.8110085968226
36	0x4079ea08c2620c59	414.6271385030755
37	0x407c1078acbec8b7	449.02946161770836
38	0x40790546f55d4186	400.329823841363
39	0x40613b6edc21143e	137.85728270016438
40	0x4062f17fa9b2e706	151.546833848399
41	0x40670a983a9eb6bf	184.33108263968276
42	0x4070125cda8eac5f	257.14766937000053
43	0x406efc293dffd6f8	247.88003444641777
44	0x40673088bf7705bc	185.5166928600937
45	0x4049d0ea8a5738e4	51.63215760477922
46	0xc076bfc5a7af673c	-363.9857556201639
47	0xc08b385217dc6f65	-871.0400845738883
48	0x406273c2e75500d7	147.6175419483395
49	0x406748b00f4fb0be	186.2714916759923
50	0x406a40384ee9d1fe	210.00687356632255
51	0x406ca9a3e3a51598	229.30125601046598
52	0x406f464063e7778b	250.19536013801948
53	0x4069bb9494f543d3	205.86188743499096
54	0xc055670523ca0294	-85.60968870856806
55	0xc08122f3bd405eca	-548.3690133122375
56	0x40665affd8cb4528	178.84373130513382
57	0x406d8a586dbc0ae2	236.32329451300672
58	0x4071606a23afc64c	278.0259129396625
59	0x40733e88aed0f118	307.9083698426998
60	0x40757134b6510a82	343.075369183127
61	0x407446b7b3afbfec	324.41984909679627
62	0x405ce9c7a4f9e1a4	115.65281032946092
63	0xc072613bb351332f	-294.07707530707097
64	0x40687e822efb3174	195.95339154301803
65	0x406e7ac3ca1d228d	243.83640008631156
66	0x4071b59707b6e9bd	283.3493725914994
67	0x4073ada13e0215c2	314.8518657761998
68	0x4074c9a7901bd24e	332.60340891711974
69	0x4073facfdcbfd8e5	319.6757476324113
70	0x40687fb269c41e99	195.9905289488277
71	0x4015ec60a0de72f0	5.4808373580715255
72	0x40628d65abb36340	148.41866097485217
73	0x40657517571bb4b6	171.65909915362653
74	0x406933b4d77cbb11	201.6158254085681
75	0x406b235083afe0fa	217.10357841826755
76	0x4069389ba19efea3	201.76899796537063
77	0x405bca9bb9598c4a	111.16575464005396
78	0xc063055e0d2ac93a	-152.16773088795327
79	0xc07dfecc77e197a4	-479.92491901514063
80	0x4065eb2a0dce3dbd	175.34888353616216
81	0x406bdf9bf8d603e4	222.9877895526871
82	0x406d124410331ed5	232.57080850586377
83	0x40732b2c7afff026	306.69835948921025
84	0x4083102a7fc9434c	610.0207515453017
85	0x407d616f1a55afc1	470.08962472411446
86	0xbfc2f31af26f3000	-0.14804398381818373
87	0xc080e473df7aec3c	-540.5565785983413
88	0x4067302ce8cbf123	185.50548209984217
89	0x406c5bc903ef29cb	226.86828800880025
90	0x406fd874ceb488b0	254.76425872097525
91	0x407169d56b6d63a5	278.6146044037835
92	0x40729a6e1be736fa	297.6518820792986
93	0x407056ae11b12318	261.41749734110044
94	0x402c95aa15f9a2e8	14.292313276980579
95	0xc0795dadb01379db	-405.85490424735843
96	0x4062a1997f271b0e	149.0499873889716
97	0x4066afeed122cff6	181.49790245818411
98	0x4068457eef6d793c	194.17174502736623
99	0x40692db3d8a075ae	201.42820388164313
100	0x4066f9b14d696226	183.80289335806555
101	0x405935318956ad9b	100.8311484667269
102	0xc060cc76d876c472	-134.38950751492263
103	0xc07a02643325b6ea	-416.1494628403876
104	0x406819868e0815cd	192.79767514781125
105	0x406df6e97f1a2572	239.71600298983282
106	0x407176c997ef8e2a	279.4242171628599
107	0x407372ec7263275c	311.18272627574856
108	0x407588045625f32c	344.50105871986557
109	0x4074b21fad2c4072	331.1327335098823
110	0x4061ee160f335eaa	143.44019279511605
111	0xc06ec8907aba9793	-246.26763664668815
112	0x4068773add888efa	195.725935713497
113	0x406dc16e304a3823	238.04470076080278
114	0x40714bc763f2d30e	276.7361793027238
115	0x4073160d565c95dc	305.37825618902366
116	0x4074d302ba44c5f8	333.1881659208734
117	0x4074f66dbd5b2866	335.4017919121601
118	0x4070ff902abd799c	271.9726970101708
119	0x4064b08612e96995	165.51636643970838
120	0x4055c363c4b266d8	87.05296437665982
121	0x405c8d29962275a3	114.20566323628604
122	0x405f30278a4d46da	124.75241334482726
123	0x405d52398d753717	117.28476273009106
124	0x405147413200c798	69.11335420681132
125	0xc045d5ef10c3e28e	-43.67135819973656
126	0xc0754cc9d6bb3ee5	-340.79927704947323
127	0xc0850b2532b95b31	-673.3931631546931
128	0x40673fd110f7a3ce	185.99427078597222
129	0x406bd9d675ff34f5	222.80742931218234
130	0x4070940bd8aaec52	265.2528921772656
131	0x40727a8ba05d39d1	295.65908848205896
132	0x4072b3781e6a25e1	299.2168258806615
133	0x4070470c245d4b3c	260.4404643673222
134	0x405300998cfcfd28	76.00937199312159
135	0xc0671648d73b8968	-184.69639169338484
136	0x406651ce15894a1d	178.55640675367695
137	0x406a044e1f59e1fe	208.13453643374663
138	0x406dd6ba8c6796ee	238.71027202827776
139	0x406f70d9ea11da00	251.52660087095865
140	0x406e07a7174d898c	240.2391468538666
141	0x4068d86ec83c26d6	198.76352321384792
142	0xc0358c37118e9264	-21.54771527987249
143	0xc0719f728282ed5a	-281.9654564966528
144	0x406463ea320c7c88	163.12233831824074
145	0x406760c0c5d32b8f	187.02353183025522
146	0x4068e5fe140752fa	199.1872654097604
147	0x4068bd4f8a9cea14	197.91595965049112
148	0x4063d7fab4cd8733	158.74935379163944
149	0x404ef3fded823e44	61.906186760516476
150	0xc0729234a3f26b02	-297.137851664491
151	0xc089533b868637e6	-810.4040651784715
152	0x406965df5fd6f2fc	203.18351737959154
153	0x407080b7bd95b627	264.0448585365397
154	0x4073cbdf926c328d	316.74208299889216
155	0x4076c6be58638bba	364.4214710129269
156	0x407c217f850af640	450.0936327388954
157	0x407ffe9c6f7bd752	511.91319225669315
158	0x40814455fdd0782b	552.5419880186722
159	0x407a4865999315bd	420.5248046632294
160	0x4065629842dfe2f9	171.08108657577375
161	0x406a0cf588b0449c	208.40497240474076
162	0x406e9112f1a483c7	244.53356248981274
163	0x406f89999bc848f9	252.300001040632
164	0x406a27939a07aaf3	209.2367677831422
165	0x40557b79c0ddda7a	85.92930623689054
166	0xc0749ef2ccfc0f4c	-329.9342775198063
167	0xc089f08bb047dec4	-830.0682073225839
168	0x40688566d37e7180	196.1688020200345
169	0x406d9b60be25f7ce	236.85555941978095
170	0x4071754774f3532d	279.3299455170516
171	0x407376b3fc358971	311.41894169724316
172	0x40752a1039f48282	338.628961520306
173	0x4073d5b8cac1ae9a	317.35761523873373
174	0x406021ec2bc1fc68	129.0600794590748
175	0xc07035c817f24250	-259.3613509619945
176	0x4060938768aaa9f2	132.61027940113814
177	0x406491e30828c704	164.5589638515886
178	0x40683234345134b2	193.5688726030399
179	0x40683558a3a6b6d1	193.66707022248605
180	0x4060af51ba701df8	133.47872659585823
181	0x404280559c052a70	37.002612593195295
182	0xc0683592193132b7	-193.67408427819257
183	0xc07c675e269c90e4	-454.46048604162775
184	0x406668b5f56c36a7	179.27221175322958
185	0x406be79a064d3dd6	223.23755183302154
186	0x406ff39c1347a060	255.6128021620707
187	0x4071fdd796f91728	287.8651342134567
188	0x4073aae88a9fa673	314.681772826799
189	0x4073ed9604eb2d5e	318.84912578455067
190	0x407049d2dbee91a8	260.61397927466396
191	0x4063ee6c1725e6a4	159.45069463160064
192	0x4065fef4ac0335d7	175.96736717822088
193	0x406b3ec149c47106	217.96109474532585
194	0x406f31fe3e370a89	249.56228552580095
195	0x4070ea3a776115a8	270.63927400516195
196	0x4070624efba35c74	262.1442829495711
197	0x40662ed62a35f246	177.4636431745186
198	0xc0680fbb5a0b0916	-192.49162008433694
199	0xc08518ed5d10c0fc	-675.1159001644987
200	0x4064a64844356dd7	165.19632158694614
201	0x4069eb6251fa1c60	207.35575198030256
202	0x406e09d55a0bc4cc	240.30729391382772
203	0x4070931c2d5c5fa6	265.1943791969628
204	0x406f9d48a80be3ba	252.9151191932886
205	0x406919af397cf2b0	200.8026397171393
206	0xc057b5bb5f44797b	-94.83956128775564
207	0xc0810cfad71711bd	-545.6224805643357
208	0x40638fc6799db47d	156.49297791291966
209	0x406b7bd3f36ec930	219.86962291372174
210	0x40700d20af460655	256.82047965386784
211	0x4070bf878e90c3eb	267.9705949454207
212	0x407084b847a58336	264.29499020245873
213	0x40685c871adc6979	194.89149230050296
214	0xc064a23e2e383391	-165.0700903985676
215	0xc084a661c03214ba	-660.7977298653198
216	0x4064253725be8288	161.16298186501467
217	0x406a945ed1f1d8f8	212.6365747188172
218	0x406df84deec89996	239.75951327495267
219	0x4070d4d1580c0327	269.3011093587142
220	0x4070eb91215fce58	270.7229322187827
221	0x406b9fd13b63510a	220.99429101369634
222	0xc05666b832595552	-89.60499247287706
223	0xc081afb207be1154	-565.9619288300551
224	0x40654f69880bf3f8	170.48163225493022
225	0x40699d094a56754e	204.9073840798032
226	0x406d28ce1abaa8d6	233.27515922982155
227	0x407090acc5aebec7	265.042180712317
228	0x4070eaa07a82b754	270.6641793352221
229	0x406ac18b1b2b5cb3	214.048230728809
230	0xc0533e2a57d8043d	-76.97133442015998
231	0xc0801c3dcb1e2bd1	-515.5301725728151
232	0x4062a377bad727d8	149.10836545965753
233	0x4067670823343e48	187.21974334911124
234	0x406aa5fc66bf0dd4	213.18706071200597
235	0x406c9ff95ccac2e0	228.99918975450328
236	0x406e193de84cab51	240.78880705809073
237	0x40681b8828344402	192.8603707333387
238	0xc03bd218bccd33ec	-27.820689964388222
239	0xc07631714643ef11	-355.0901549009005
240	0x40635d5e70bd0640	154.91777836722213
241	0x4067d525bc4ec4f3	190.66085639366756
242	0x406b8ac4e19d879e	220.33653336303263
243	0x406c977e500cf70e	228.73416903049696
244	0x406e483994c6e728	242.25702895019754
245	0x406bf8b8dec983db	223.77256717070017
246	0xc05184df4f88c9a0	-70.07612980230488
247	0xc0816be9b4762639	-557.4891137342848
248	0x4060b1581448fdc2	133.54200186019995
249	0x406472a7161f4bb6	163.58289629089785
250	0x4067e92d2cf692b9	191.28676460417572
251	0x4068557e29b29b42	194.67165074237897
252	0x406577a240802d9a	171.7385561469535
253	0x4057a193f6f7af78	94.52465604961424
254	0xc06057877d309798	-130.73528918734223
255	0xc079ef80f9416f22	-414.96898770866585
