results/train2D/NLPD (Artificial Kernel).npy (npy, 3328 bytes, 1 tensors)

array f8 [50, 8]
207.4738252508102 -523.7264323267522 -304.41760500323153 -369.0493806022829 -671.2264053152203 -628.5206325241261 -482.155327877765 -393.82352037996077
477.19876195028604 58.69478900477037 -703.9527283690451 -674.7538238404721 -751.5844224499048 -592.5072980781564 -335.45696788156386 -280.65016353904787
134.50581584836948 -152.89506013100893 335.20404714224276 506.1895907324078 2233.7215392082676 3306.2075099628714 4155.737495050373 4510.3963107045365
372.7118285881717 -145.21611223444177 -468.34644950459847 -351.10530260910673 -46.66930833171722 49.743006206602416 173.30690341383252 137.5065233453113
215.39726785981048 -171.45610014978087 -606.1861279684847 -670.077289665218 47.868106327525766 621.3440447177859 987.2794083309711 1058.432257688287
805.0212165393677 636.5578997274993 -565.1364157799983 -1290.9719887659053 2024.8236364198474 4777.057046068579 6420.029430381635 7032.406801654818
324.5757455603524 -28.648421351540804 -588.3258399087815 -888.8152609465047 3744.5251309280097 6628.448887828261 9182.354226930762 10245.556002638406
-40.30769601925266 125.87031267652728 80.22365253908947 -353.91510613169925 417.2226891794766 1256.5384296153816 1572.9046519796975 1561.8956243778052
125.92984404234144 -52.69673777768912 -35.023215057107706 189.7293373498858 833.7666274647975 1366.065570853091 1408.8837353304757 1386.9677888396698
621.6745295767548 364.7232592082481 4.360358594603127 -498.7454072491687 108.21842334547921 1007.9414675641748 1832.7638613311965 2122.283953645944
718.4183666525828 979.5164866445814 2333.138789631526 1793.4709638564545 1389.5168749633676 423.2999786265427 721.2323719639309 838.4313859128497
400.86912155080097 704.8953697360657 853.9483284835752 998.5176738170995 1264.04382696935 1724.1765721544477 2549.2990669888154 3068.359291337587
1319.5991520876198 574.9757735819974 858.7523108048135 469.3328754035705 -463.11494788152027 -487.38210830493915 -156.58810151971096 -18.83197403866299
-28.564091786604504 -272.7619028665522 -295.3569972705476 -168.49330612671633 798.4360648727429 1296.0107495057025 1625.285975545754 1733.1933611625598
193.86606007761463 130.46314277652823 185.35167110845896 136.51311317583276 -561.4132656372657 17.193597748025013 449.83826821761613 643.8620550193991
1031.0093967205903 1573.4040560166295 2447.8992751651103 2334.7951038101237 2847.8234180507943 2210.9781348733013 3927.64592472241 4604.121332237753
76.51065509148825 -235.41048724859542 -646.7439460977266 -415.93613195943027 249.34485652163926 -133.86069169293634 164.72906236740383 264.5320980576361
20.30483034151314 34.92952144861141 152.85730861992354 -33.765586276305015 -204.02442170102654 720.8453877173272 1215.9067587546429 1435.9357443489976
234.90945845252276 1254.2925198091384 1269.8974801475356 1023.1117857917578 1491.84861619578 533.807675937421 865.9756715784084 2019.5197064586678
191.96973717927727 -328.222566046591 -495.5340095574306 -301.87142659575795 1296.8804783653686 2953.819197404479 4199.905707028881 4627.184207148121
577.6609383363017 384.42409277068964 -443.98733131543725 -622.8929467392511 4165.315857155228 8660.761355680022 12006.302895114031 13439.360614591313
64.94673458966881 -258.41018516410213 122.40682903021448 -441.22518245015885 709.4987160428598 1223.0437034478068 1383.3822507350753 1375.260297233789
1052.4775482756918 262.19243374974883 239.57541311892726 861.8728577681138 -232.52937287933918 794.2517221341756 1609.6993539653079 1897.703042291927
179.4147433649971 -179.65499138687167 -205.08302926461263 -761.8305575729958 -475.475128971931 -28.956914632920473 406.8616888830212 496.248651918003
386.85864716116623 -406.36887994652454 -637.4091238535893 302.4264364706204 2120.9101732265863 2966.3204461805394 3971.2438876268334 4449.895525054679
398.48937430412855 -99.6861589433465 -227.8902862327463 -928.7634243911195 -709.6891971152639 -271.9995603520369 81.53645428744193 209.62191039522534
284.34394497734036 -60.47854865513116 -271.0802939125059 -334.81426199953154 177.84412842619486 -790.9419151725181 -280.75280414114314 68.32338084421491
576.6402237964774 -33.300265342729425 -511.9636273837241 -116.47448857384609 843.6827708173503 1367.5096976944012 1773.4641878567702 1936.721460939902
198.07379690527546 -110.1414036465132 -454.41217175849 -861.6800669908542 -655.1742407094252 -6.282240328058492 321.0288027131886 446.7214443872607
164.54307514648661 103.93889685149345 -325.7556780801728 -450.15355549105243 222.21865409700678 390.7633604506846 740.388017585708 1026.8200897995025
411.8550881344628 645.3205037220022 518.8999372252958 605.999192694648 4810.247503249332 8799.415165655711 11754.910869194655 12854.185627405921
213.21922982914717 568.3289897620608 467.8721736849661 701.2247926931241 -494.93945896747624 -179.2422207147947 89.93970088384208 181.58705666785738
00000000: f687 9293 29ef 6940 4371 c0bb cf5d 80c0
00000010: 6878 9582 ae06 73c0 ca7d 5043 ca10 77c0
00000020: 1804 97ad cff9 84c0 d882 6241 2aa4 83c0
00000030: 86b2 1539 7c22 7ec0 56b8 b423 2d9d 78c0
00000040: afc2 0221 2ed3 7d40 f88d 9ad8 ee58 4d40
00000050: 2918 0d30 9fff 85c0 2f2e cbd4 0716 85c0
00000060: 1d6b ade5 ac7c 87c0 0b78 4bf2 0e84 82c0
00000070: 3aaa 8dbd 4ff7 74c0 3214 e211 678a 71c0
00000080: 74d1 b7a4 2fd0 6040 61d4 2455 a41c 63c0
00000090: 66ac efc6 43f3 7440 0fb5 4a90 08a3 7f40
000000a0: 954c 966d 7173 a140 41f0 be3e 6ad4 a940
000000b0: 50c2 79cc bc3b b040 0a4b 9e74 659e b140
000000c0: e3a8 5fa6 634b 7740 2c66 3464 ea26 62c0
000000d0: 74bf a20e 8b45 7dc0 c0e4 c951 aff1 75c0
000000e0: 38d5 39e5 ab55 47c0 8c0a cfd3 1adf 4840
000000f0: 20ae 1b27 d2a9 6540 b958 7270 3530 6140
00000100: 6a34 166b b6ec 6a40 4e60 575f 986e 65c0
00000110: 1a0c a930 7df1 82c0 7143 0b4a 9ef0 84c0
00000120: 4016 af1b 1eef 4740 045a 849a c06a 8340
00000130: 025e 6f3a 3cda 8e40 8d6a c2a1 ba89 9040
00000140: c0b5 9373 2b28 8940 74e0 2194 76e4 8340
00000150: 020e 2861 17a9 81c0 92e6 0551 e32b 94c0
00000160: 287c 5867 4ba3 9f40 ea36 929a 0ea9 b240
00000170: a2de bf88 0714 b940 673b 2724 6878 bb40
00000180: 7e08 fa40 3649 7440 58e5 12f1 fea5 3cc0
00000190: 963f f451 9b62 82c0 8df7 87a7 85c6 8bc0
000001a0: d703 f6dd 0c41 ad40 f40d 50ea 72e4 b940
000001b0: 7edd 4e57 2def c140 392e 182b c702 c440
000001c0: 58e6 4995 6227 44c0 a6be f033 b377 5f40
000001d0: a043 bd52 500e 5440 47c0 5346 a41e 76c0
000001e0: 6770 8722 9013 7a40 0cd5 175a 27a2 9340
000001f0: 40ac 165d 9e93 9840 b290 8e1e 9567 9840
00000200: 2a0f 9690 827b 5f40 0088 18b4 2e59 4ac0
00000210: b486 03b6 f882 41c0 5930 48bb 56b7 6740
00000220: 2a8c 940d 220e 8a40 6376 0125 4358 9540
00000230: da1a eaf1 8803 9640 439f 0904 dfab 9540
00000240: c642 c36f 656d 8340 4e5f 3f78 92cb 7640
00000250: a09c ead7 0171 1140 18d6 2630 ed2b 7fc0
00000260: 0861 e9a5 fa0d 5b40 0173 2520 887f 8f40
00000270: ac30 aa31 0ea3 9c40 d24d 5f62 9194 a040
00000280: a494 9dd0 5873 8640 62fa bfc3 219c 8e40
00000290: db40 6f0f 473a a240 4864 5944 e205 9c40
000002a0: 249f ab47 11b6 9540 0068 63b6 cc74 7a40
000002b0: b90c d5e5 db89 8640 281d 757a 7333 8a40
000002c0: 06cf ffeb e70d 7940 d8b1 9bb7 2907 8640
000002d0: 9176 3e2d 96af 8a40 8193 2b32 2434 8f40
000002e0: 2a20 fae0 2cc0 9340 f3b2 54cf b4f0 9a40
000002f0: 8df0 4e1f 99ea a340 58c1 08f5 b7f8 a740
00000300: a1f6 1f88 659e 9440 d637 6162 cef7 8140
00000310: d0f8 86bb 04d6 8a40 a6bf 2875 5355 7d40
00000320: fcfd 96d3 d6f1 7cc0 e613 991d 1d76 7ec0
00000330: 5e3c 47ba d192 63c0 b82d 2740 fcd4 32c0
00000340: 9768 bf51 6890 3cc0 2069 0fc1 300c 71c0
00000350: 361c c542 b675 72c0 3825 ee29 c90f 65c0
00000360: ec7a 940f 7df3 8840 c31d eb01 0b40 9440
00000370: e001 c6d6 2465 9940 0bf6 7700 c614 9b40
00000380: 3cb7 9fc3 b63b 6840 28d2 cc10 d24e 6040
00000390: f0b8 c4e3 402b 6740 26ab 526c 6b10 6140
000003a0: efe4 365e 4e8b 81c0 c058 3c9f 8f31 3140
000003b0: 003f ef8b 691d 7c40 601d 1a7d e51e 8440
000003c0: 803e 4b9f 091c 9040 b444 dcc0 9d95 9840
000003d0: 8260 cb6d cc1f a340 d0ba d817 973d a240
000003e0: 32fe 0c97 a53f a640 d017 18ce f445 a140
000003f0: dc2c a5b6 4aaf ae40 1a29 a10f 1ffc b140
00000400: 965e b192 ae20 5340 8e84 27b6 226d 6dc0
00000410: c8fd 029a f335 84c0 e567 8165 fafe 79c0
00000420: 1848 8b10 092b 6f40 3723 4ec9 8abb 60c0
00000430: cd17 9a7a 5497 6440 ffbc 4079 8388 7040
00000440: a0a0 7b5c 094e 3440 b85b 0f8f fa76 4140
00000450: d1a4 7c12 6f1b 6340 8c7f 29bb fee1 40c0
00000460: 18e7 0410 c880 69c0 e2b2 a25a c386 8640
00000470: 36f2 5d85 a0ff 9240 7241 c433 be6f 9640
00000480: fed4 9c48 1a5d 6d40 ba16 508a 2b99 9340
00000490: e629 0905 97d7 9340 0ffe f2ef e4f8 8f40
000004a0: edde a4fb 644f 9740 ea47 cd1e 76ae 8040
000004b0: 3587 e62c ce0f 8b40 fe0d ee2d 148e 9f40
000004c0: c2d6 4316 08ff 6740 ef34 6aa1 8f83 74c0
000004d0: a70e 9b4d 8bf8 7ec0 529a 035d f1dd 72c0
000004e0: 60e0 1e9c 8543 9440 699a d76d a313 a740
000004f0: cd74 6adc e767 b040 de1c 3328 2f13 b240
00000500: b5d8 099a 490d 8240 5049 8015 c906 7840
00000510: eae1 eb1b ccbf 7bc0 3a91 42c1 2477 83c0
00000520: e9b7 03dc 5045 b040 2959 1a74 61ea c040
00000530: 7160 44c5 2673 c740 1372 9e28 ae3f ca40
00000540: a627 ad4c 973c 5040 f891 511e 9026 70c0
00000550: 6af5 a07c 099a 5e40 0cb1 e958 9a93 7bc0
00000560: 9630 d65e fd2b 8640 36bc 98c0 2c1c 9340
00000570: 1598 bc6c 879d 9540 74a9 5b8b 0a7d 9540
00000580: 6e49 6a02 e971 9040 165d 6935 1463 7040
00000590: 6cef c5c8 69f2 6d40 de80 da9c fbee 8a40
000005a0: d684 649f f010 6dc0 b5ef e486 03d2 8840
000005b0: 4d25 7223 cc26 9940 208e 51ea cfa6 9d40
000005c0: a89c e093 456d 6640 d138 7fb0 f574 66c0
000005d0: e903 fd2c a8a2 69c0 b26b 5efb a4ce 87c0
000005e0: 363d d620 9ab7 7dc0 1075 7d5b f8f4 3cc0
000005f0: 723e 487a c96d 7940 92fe 6e7a fa03 7f40
00000600: 3240 ce04 bd2d 7840 92a7 a8ee e665 79c0
00000610: 7019 bae2 45eb 83c0 2e72 0caf d2e6 7240
00000620: c4a3 3902 d291 a040 1793 8511 a42c a740
00000630: 4cca d6de 7c06 af40 9846 2141 e561 b140
00000640: c27b 267a d4e7 7840 fe61 3307 eaeb 58c0
00000650: 2eb7 8d39 7d7c 6cc0 9e46 3f7e 1b06 8dc0
00000660: 73f4 c679 832d 86c0 07e6 fe32 feff 70c0
00000670: 2c17 5d44 5562 5440 2111 a1b0 e633 6a40
00000680: ced4 72cc 80c5 7140 a4aa 1315 413d 4ec0
00000690: 7e04 45e2 48f1 70c0 d125 9737 07ed 74c0
000006a0: 3004 9e19 033b 6640 926c d20a 89b7 88c0
000006b0: 0de8 5a7c 0b8c 71c0 9483 9145 b214 5140
000006c0: ee5f a72d 1f05 8240 9392 4118 6fa6 40c0
000006d0: 002a 8c04 6bff 7fc0 a8bf 5205 5e1e 5dc0
000006e0: 76d9 8b50 765d 8a40 3341 31ee 095e 9540
000006f0: 1dc0 0f54 dbb5 9b40 e218 a8c6 e242 9e40
00000700: 88d6 538b 5cc2 6840 cc53 e1c1 0c89 5bc0
00000710: caf0 6941 9866 7cc0 7766 f6c6 70ed 8ac0
00000720: e824 50d8 6479 84c0 807e ca9b 0321 19c0
00000730: e672 d5f9 7510 7440 ae12 4509 8beb 7b40
00000740: c62d 21df 6091 6440 d5de d1e2 16fc 5940
00000750: 570a e641 175c 74c0 1043 9af6 7422 7cc0
00000760: fa78 e036 ffc6 6b40 01ac 72b9 366c 7840
00000770: 1cc7 f6a8 1a23 8740 96d2 9ec5 470b 9040
00000780: 724b e570 aebd 7940 f761 4164 902a 8440
00000790: cab8 4912 3337 8040 524f bd58 feef 8240
000007a0: 8979 5f5c 3fca b240 daf0 2524 b52f c140
000007b0: fd9c 5c97 74f5 c640 d68a a3c2 171b c940
000007c0: d54f 46ee 03a7 6a40 2966 62c5 a1c2 8140
000007d0: c8d5 646c f43d 7d40 c88a 1c60 cce9 8540
000007e0: e953 2006 08ef 7ec0 a00e a845 c067 66c0
000007f0: f007 2d0f 247c 5640 14ab 102b c9b2 6640
