results/train2D/Optimum MLL (Artificial Kernel).npy (npy, 3328 bytes, 1 tensors)

array f8 [50, 8]
00000000: d582 9de4 0443 6340 f6ff 7a49 28a9 6740
00000010: 20a6 bddd 28fb 6840 8ea4 0ef5 b158 6840
00000020: 4fe5 4bf3 facc 5e40 eeac d3f7 ae70 48c0
00000030: f53e 2db4 6530 80c0 cae6 b9f6 3d8c 90c0
00000040: 5a8a a8cb c560 6840 c1eb fa45 3fdb 6e40
00000050: 999d c5de 85c7 7040 6d73 7cd9 7024 7040
00000060: b67f 4465 2b64 6740 6956 4570 24c9 eabf
00000070: bfd4 0f5f 52a3 7cc0 0203 4968 b9c1 8ec0
00000080: f2a3 ef39 3078 6240 acb8 46b8 f514 6540
00000090: 20cb 33a4 fd47 6640 8c60 8f67 ccc3 6340
000000a0: a405 b225 bf1e 4140 6d21 f372 73ab 68c0
000000b0: edf6 a4a0 ec55 86c0 ad10 a334 07e9 93c0
000000c0: f38c b48a 5a29 6840 0e97 2271 c445 6d40
000000d0: 4ed6 eb05 f70e 7040 4536 d103 b957 6f40
000000e0: bd6c 0cff 6236 6a40 0910 a1cb f9b8 4540
000000f0: 304f 4208 57ea 7ac0 495d fedf 98ba 8ec0
00000100: 74ee 123a ee67 6940 4784 7603 5890 6e40
00000110: 4b9c a819 a5b0 7040 5fba eb36 c507 7140
00000120: c1d1 eda9 6b90 6940 0476 734c 1463 3340
00000130: a8a1 7351 51ad 7cc0 e843 7c1d f589 8fc0
00000140: 3cfb b5df cca3 6240 6a88 0224 b44e 6640
00000150: 1f3d bcf0 9923 6e40 aa25 704d e9e4 6c40
00000160: b6ec 5bd9 ab78 5540 a9dd e81c f579 60c0
00000170: 93f6 2ce3 96e6 83c0 1cd3 37f7 507f 92c0
00000180: f94f b944 0187 6140 dd44 1d8f 1a80 6540
00000190: f5ca 496c ed6e 6640 becf 0b1a 37d7 6440
000001a0: aff7 4f6f 18a1 4a40 44f4 33a7 e09e 64c0
000001b0: 32f7 64b7 ca91 85c0 d528 0dfa 6d8a 93c0
000001c0: bb01 efb8 4dd6 6540 6a83 5f57 b19c 6a40
000001d0: 0711 28e4 b988 6c40 dabc bf02 6c3d 6d40
000001e0: 1935 2a38 b159 6240 f9fe 1814 8629 34c0
000001f0: 22f3 662f b327 7fc0 d2ac 00c4 ce43 90c0
00000200: e74c d752 9110 6840 f0fa 0793 0bce 6c40
00000210: 0932 c009 2e79 6f40 540c b134 efcf 6f40
00000220: f940 35e3 fa05 6640 3730 7210 bb2b 2b40
00000230: f147 3e28 de5a 7dc0 6d13 15ab 94bc 8fc0
00000240: 59c5 47cd fb13 6140 f3c6 0ab2 0cf2 6240
00000250: 2a4b d436 fd7f 6640 2f20 5427 cd7c 6740
00000260: 91a6 1abb 8b1b 5940 6082 a1f3 dc11 60c0
00000270: b4c1 7926 ef55 84c0 302f 780b 29ec 92c0
00000280: 1246 6309 c6be 6340 acac 5545 1310 6840
00000290: 8b85 4891 2dea 6640 19f7 ac81 bb6d 6840
000002a0: bdde 3901 be4f 5c40 bfdc a100 60da 5dc0
000002b0: 8bee 1ecc 174f 84c0 5bb8 9741 07f9 92c0
000002c0: 78e5 fb0b 66f4 6640 d582 e1e0 ab1d 6b40
000002d0: de41 43e7 8d0e 6c40 17e5 14e9 92ff 6940
000002e0: 54cf 7e6f 3219 5440 f53b 12c8 e956 60c0
000002f0: dc90 e605 cea5 84c0 b3c9 bbec 9f03 93c0
00000300: 43f8 8f18 711d 6040 16f8 b8cd 165c 6440
00000310: d398 0da8 715e 6440 65cc 2d46 7bd0 6340
00000320: c63a db0c f607 5640 1455 8749 4d89 5cc0
00000330: 4633 dd63 3b5f 83c0 b67f bffa 0e56 92c0
00000340: 289b a1b5 339f 6740 762b 739a 4e42 6c40
00000350: 4784 883b 3cf2 6d40 e7d5 ac8f 5911 6d40
00000360: 00c7 9eb4 a1c4 6140 85c1 ce10 cff6 48c0
00000370: 19ca c097 dd51 81c0 57ac 1054 012f 91c0
00000380: cbf8 81bb 1715 6840 15da 8a41 5d0b 6c40
00000390: d7b0 ccd3 ead6 6e40 8a1f 5dbb a068 6f40
000003a0: 63a9 bfc6 b8a9 6440 b538 2e5f dbc6 35c0
000003b0: 9080 5940 591a 80c0 4299 1483 d597 90c0
000003c0: ce04 f0b6 1cdd 5340 c26d 7859 2877 5940
000003d0: ab20 e911 e9fd 5a40 c591 9dfa 8888 5740
000003e0: 9cc8 0dfd b996 3740 b304 d694 1f39 69c0
000003f0: f927 63e1 4837 87c0 301f 6087 c16d 94c0
00000400: 4ec9 3bbb 3623 6740 7d44 17c3 e9e2 6a40
00000410: f133 7fc9 ab03 6e40 a6b7 b1ab 63d1 6d40
00000420: 831a f7ca dd24 6240 a4a0 a1c7 7c68 30c0
00000430: ccb9 353a 6931 7fc0 5f3a c67e 9b5a 90c0
00000440: 58de 55e7 2b15 6640 bd92 8a82 5722 6940
00000450: 113c 68be a04b 6c40 257a 6d8e a400 6c40
00000460: b714 b1a4 3124 5e40 0bf7 0324 153c 52c0
00000470: 4805 d09c 60c6 82c0 8ed4 bf9a e30a 92c0
00000480: 9820 06d9 e879 6440 c410 4687 f6c1 6640
00000490: 2da9 7a2e 005a 6740 dde3 abbf f9d1 6540
000004a0: d9d3 ab76 0f69 5340 8b48 02ea e2df 5dc0
000004b0: 3658 e0c9 5416 83c0 b261 7675 5e4b 92c0
000004c0: a76c 4ba3 0a95 6840 d3f0 3559 0704 6e40
000004d0: c3c8 5e74 cd54 7040 7041 1fff 34af 6f40
000004e0: 979f 4ea8 a5a4 6640 9908 e65d d62d 1b40
000004f0: 23ea 5df8 c0a2 7ec0 5321 11da 3a0f 90c0
00000500: 2c85 6ced b6ff 6440 e650 2cf7 824a 6940
00000510: 7cd1 3161 b73c 6d40 321a 7875 5818 6d40
00000520: 8872 564c aab4 5b40 855b ef20 1ca1 5bc0
00000530: 1890 2f0b ffef 83c0 2a49 e8ca 62a1 92c0
00000540: e037 9690 e438 6840 1759 af6e 119d 6b40
00000550: e438 8f3a ec3c 6d40 96f0 8052 f4b1 6f40
00000560: adfe 6017 ad15 6640 13fa f1fd 241f a7bf
00000570: d231 5045 c12a 7dc0 723f c2e1 056b 8fc0
00000580: 2a39 c0d6 161f 6040 a949 cf03 d856 6440
00000590: 1cc8 33c7 62e7 6740 a47d 321f 2649 6740
000005a0: deee 273a b942 5c40 e26f 6fac 6013 61c0
000005b0: 33a3 83aa f4a5 84c0 4083 daf9 2323 93c0
000005c0: 1f93 c501 0e42 6640 4763 5e62 03ea 6a40
000005d0: d621 fe60 16a8 6b40 0f7f f9fb 6b8c 6d40
000005e0: 942e 377a 7162 6240 5b06 3980 802f e93f
000005f0: b7c9 0228 4c2c 7dc0 5c0e 3e25 866f 8fc0
00000600: aa13 a0ff 89dd 6540 2093 6afc 2e82 6a40
00000610: ab74 c10b f103 6c40 48c4 f773 30bd 6a40
00000620: af20 d283 7ef3 5940 5872 af53 3238 59c0
00000630: d3d2 3356 01f1 82c0 1f3c b715 04fa 91c0
00000640: 79d1 387f 951f 6440 deed 8506 4668 6940
00000650: d620 80e5 f88f 6c40 59bf c209 a95d 6e40
00000660: a980 b68b 661a 6140 5bc5 4154 b25f 42c0
00000670: 275f 5374 4b07 80c0 b560 2e8b 1b7a 90c0
00000680: 4436 f6f2 321b 6340 6a27 fb2d 736b 6a40
00000690: b9be 996f 20ba 6d40 a3b2 c7d0 3c3d 6e40
000006a0: 6d15 3604 50d5 6640 4e03 019e d364 3840
000006b0: 1ddd 5469 039a 7dc0 9923 9f7d b104 90c0
000006c0: 5751 c2ef b3db 6340 1601 dacc 430b 6a40
000006d0: 9f0d 3505 950e 6c40 e905 3b77 7ff0 6940
000006e0: 9632 3d02 a2f8 4a40 dc48 5ef3 153d 63c0
000006f0: b6e1 730b c666 85c0 9f63 6afe fa6b 93c0
00000700: 6281 389b 5272 6540 53eb 2203 498b 6940
00000710: d050 557f 542c 6c40 78fb 0bb3 298f 6d40
00000720: 7cb5 da7f d97a 6240 1856 618d eab8 34c0
00000730: 162f 5ecb 88c2 7fc0 626b 5e6a c35f 90c0
00000740: 997f 8dd4 a1bb 6140 b0ea b8be a087 6540
00000750: 9fc5 0859 36e1 6640 6f88 303e 528d 6440
00000760: 7e27 b5db 4061 4940 7ea3 335e 6b8e 62c0
00000770: e95d f978 450d 84c0 106a c465 93a3 92c0
00000780: 74a9 9ab1 efde 6240 9c1a 3739 09bd 6640
00000790: 5aba 2225 8b2a 6940 5960 adce 45ae 6840
000007a0: 6216 d910 dbe2 5940 f81d ac03 fae4 5dc0
000007b0: 878e 58de 1715 84c0 2bce c943 edd7 92c0
000007c0: aff8 0338 dfa6 6040 2ed7 70e3 ddcc 6340
000007d0: e940 fc20 8a44 6640 f83a 0ae9 6377 6440
000007e0: 42ea 1a40 b9cc 4d40 08b6 78ec 25ab 63c0
000007f0: 2a9b 4ced 6fb9 84c0 a891 718d e816 93c0
154.0943472935093 189.28616785071762 199.84873854676061 194.77172329769058 123.20281679546063 -48.88033960185736 -518.0496600661123 -1059.0605114981759
195.02414496343664 246.85147379882804 268.4701831549988 258.2775511609423 187.13029731157957 -0.837053508070949 -458.2076101892853 -984.2155309394877
147.75588700108307 168.65499509632843 178.24971208682928 158.11870172503802 34.24020835106356 -197.3578428982395 -714.740540779863 -1274.2570367316177
193.2923024679545 234.18022972827788 256.93530838130835 250.74133482801167 209.69958450724326 43.44512315143954 -430.646248110791 -983.3246459839075
203.24783042619276 244.51074383876605 267.04030767310604 272.48564807969336 204.5131425518903 19.38702848261711 -458.8323530690054 -1009.2446851452087
149.11875901740302 178.45948982710553 241.11254154935247 231.15347930816398 85.88548883416192 -131.8111710117494 -636.8236754906414 -1183.8290680620767
140.2189048404105 172.00324207035638 179.4664822999254 166.72547628695423 53.258558191343916 -164.9649234785776 -690.2239826095522 -1250.6073991829082
174.6969875972844 212.89664810805272 228.27269180131427 233.91943490456362 146.8028832268108 -20.162202125647102 -498.48124637808553 -1040.9519195657235
192.51773969698772 230.43891288336408 251.78686988390135 254.49794992999762 176.18687591935284 13.585411561907774 -469.67923759773754 -1015.5725919386438
136.62448753373863 151.56404974083816 179.9996599336967 187.90004316740803 100.4304034958134 -128.55822164101392 -650.7417726051558 -1211.040082815056
157.96167439832112 192.5023523972826 183.31806244053254 195.42913898260375 113.24597197200178 -119.412109525746 -649.886619798331 -1214.2570861536285
183.63745688627728 216.92723125500802 224.45482218872252 207.9866834076026 80.39370334037568 -130.716037784208 -660.7255971920927 -1216.9061765043123
128.9200556575689 162.8777836430242 162.9513740792814 158.51504811234477 88.12439271363391 -114.14534223762558 -619.9039990693352 -1173.514628402872
188.9750621944779 226.07209513181778 239.56985260642452 232.54218276745743 142.14473944674683 -49.92819414229874 -554.2331996022868 -1099.7512972455204
192.65914702782752 224.35513379210957 246.71616544703167 251.26962059200406 165.303805708255 -21.776784848007726 -515.2935797684058 -1061.9585078447858
79.4548776000913 101.86183773766155 107.9673504616391 94.13336053264273 23.588775459160942 -201.78510515022717 -742.9105861422132 -1307.4389929789577
185.10043107678433 215.0910354093975 240.11472010464016 238.54341683111596 145.1520743204347 -16.408153988799896 -499.08819027887944 -1046.651850793183
176.66160933276365 201.07318236413076 226.3633720432122 224.0200874460435 120.56552998822268 -72.9387903250428 -600.7971740962612 -1154.722270009373
163.80967379757635 182.0613438003985 186.8125221629829 174.56173690387996 77.64156882076294 -119.49822473738656 -610.7914006735725 -1170.8422449586037
196.65754856807072 240.125897031167 261.30015980744446 253.47521930794346 181.14522185665257 6.794763056912552 -490.1721118610896 -1027.8074724842634
167.99108000941612 202.32848700194808 233.89738521318566 232.76079820115552 110.82289417688492 -110.51734183668857 -637.9995330539559 -1192.3464771551758
193.7779009756041 220.90837797401102 233.90383651707737 253.56107449706604 176.67737931198408 -0.04515948867718946 -466.67218524290104 -1005.3778720069515
128.97153794807065 162.71386900411497 191.23080787767037 186.28590354787332 113.04255536937441 -136.60555097355888 -660.7444658550434 -1224.785132803212
178.0642098292237 215.31291311678999 221.25273179660024 236.38818167428732 147.07635222223018 0.7870485786772393 -466.7685928448586 -1005.9405007217533
174.92309552445414 212.06823559584973 224.12317455086063 213.91216467277468 103.804596858218 -100.878071709952 -606.1256526993478 -1150.5039890890546
160.98699914071383 203.25854803236047 228.49913287186672 242.92688453709232 136.82501779217753 -36.74762967311354 -512.9118429673589 -1054.5268981215024
152.84996936882283 211.35781001142033 237.81645946529696 241.91367377284504 182.66601763308736 24.3938540222619 -473.62583287382023 -1025.173330771015
158.8657149119633 208.35202639178232 224.4556909595676 207.5155597832484 53.94244411457218 -153.9089295236107 -684.8467015317208 -1242.9951111434273
171.57258378063403 204.35266262836612 225.38531462348192 236.4738402589826 147.8390502235087 -20.722328983558413 -508.1583970717487 -1047.9408354523698
141.8635046733514 172.23837219349434 183.03788425172112 164.41628941992846 50.75979181619094 -148.45060644231484 -641.6589221460137 -1192.893942898725
150.9667594929448 181.9073759151696 201.32948548109817 197.44602140295572 103.54462071609444 -119.57775966461475 -642.6366545599457 -1205.9817039043508
133.2147483899657 158.4020859912793 178.14186143177292 163.73094608305087 59.59940339388096 -157.3483793599737 -663.179651831136 -1221.727102064624
