results/Noisy2D3/Optimum MLL (Artificial Kernel).npy (npy, 3328 bytes, 1 tensors)

array f8 [50, 8]
156.24871399151897 197.38781767589825 225.91028250966548 246.47933711128695 243.61564876524614 174.9860638486412 -109.85531528083727 -564.7643634323387
195.36222439995788 250.47016742019773 291.84584747901187 330.61470756010056 386.6931714565527 397.0482270830964 333.633685470516 76.02565565558035
148.8734519077781 179.45156589683828 211.87823762856763 227.03070075513813 226.08102487615415 156.6694377401592 -155.08549498360574 -614.0255590584737
193.70764789499748 243.86124250491548 290.75176434818866 326.8578306769265 391.72738173622923 404.2784598892465 318.7001686856829 6.712468175083075
207.84739960026835 260.1175627769556 303.7237849793825 346.0081452934811 411.72970944647994 444.4646586760006 390.4552055441956 121.54478568595037
149.81713751803397 179.79046497926396 255.3550953490443 245.64179415064285 172.38448473028498 36.42029215006491 -382.8444365541716 -891.0242726866121
142.4140405305505 179.07047538081224 200.03273477745654 208.16424759430117 206.7152038529702 139.7729164736408 -183.57521810485764 -659.5297900870487
178.77423217302788 234.0300751019397 267.87327656469495 297.15138866545396 309.1511007339259 280.0199240691488 66.50566890047898 -344.1399104067877
195.99468541984035 243.82564299606486 283.07631310722184 314.2575749170758 332.0906153774124 319.9312507171489 200.69745549862148 17.30674640829774
140.68922231504737 159.90125740431642 187.01427412117 199.34903440292538 178.71156697896328 65.0325393218447 -311.1016800468619 -816.5827765013405
161.61826775451755 201.8709839727249 191.09279191792012 215.10573358403622 165.2226092894276 -8.683032596654698 -491.66502486552724 -1035.7377177013852
185.49230741659443 226.69969733018198 253.7947306941776 275.33308529878934 289.8438451947819 248.22013513416053 -3.773175876357584 -426.5149983319634
138.912165399512 168.6554398709563 174.13387055518126 175.66018348126 140.8046213163701 12.564310330921757 -371.12067112643234 -845.7968223852421
192.41825918265232 239.17108343682418 278.0719028563617 308.65565222911823 337.1862878821811 318.06752535051413 121.38090345899617 -273.68819366165746
195.64691531558535 237.83800281752505 276.3935728484384 304.8868659403816 332.5001738228654 334.6723215802534 272.0529781526425 167.1328022466997
80.17548450303354 104.04588529274028 111.24180548495298 101.25585553449508 53.212854523864166 -101.43243704629288 -558.0806237338388 -1087.5600209828447
186.1426931652763 222.83165261407942 264.62004349765243 294.4655187044805 296.8933059787564 256.5228166674202 64.41880825187488 -207.65578249472009
177.69008014124245 206.4481958520526 235.97920398777194 247.757531133373 230.30884905523118 175.02302942157127 -178.2180477824512 -660.9593429382949
163.64948541640007 185.23284465350423 192.39148449455035 182.9673257212661 112.16731159793594 -38.09940543147479 -449.13223866874876 -967.3965291261311
203.26874263220347 264.45707098112575 317.44281611242127 365.5855993649628 452.447935701871 515.8248685701292 561.2175431744068 437.6583620833575
170.7272597874769 207.0761661623131 240.7193965310737 245.34570744280356 193.74213143589893 67.6228456054385 -349.3973635424272 -849.9871887032897
195.8784003342477 236.74241276300003 278.6100246822992 310.60645847589416 337.1999959975883 315.5028348020825 126.30803675998438 -262.65892828071134
138.7151476529899 169.20594661325566 209.31102203263566 225.6805581858414 144.2308462286014 -27.923302637166785 -481.73860673804097 -1015.6844660147386
179.6415192266072 224.16329606164248 257.47153725956036 290.6150082197076 319.37846329667514 323.96693365874705 261.385328373269 151.21803614708858
175.67872969922553 216.50571902953232 247.13661082376805 263.0414738956125 228.96080409320643 120.94633819676949 -263.20586326737464 -750.5809322785786
165.17915879621043 206.9095504478924 238.80112912241725 261.6866230015818 245.1269155141968 193.2609772352225 -103.54387511197687 -554.9181457310739
153.75968256691877 215.46713189011962 242.65516791068777 243.22076314118465 205.73127285065573 95.37937631956873 -299.2374687511093 -803.1362682616755
160.89471329042945 213.3418270102111 235.50586482413962 250.26045768087212 223.93744750174653 140.2973330455018 -219.63270572843228 -706.1317765436262
171.47537356129544 205.83321709388028 234.24451534991502 265.26405712210476 270.67835944392436 214.26627039459228 -75.06844762843122 -512.8166166597747
142.89363074872654 177.70230850857163 200.41054897727918 210.7866406040005 211.5768235287918 146.4904969269495 -146.87380327986497 -605.3633847114066
153.38131323249507 188.45866798263353 215.6417623091828 220.80010129635883 191.41984638939783 96.41724840838074 -262.2280417594284 -756.6710990232551
134.5051884718618 164.84871508312042 192.2784809257406 195.298509007507 172.6524000489101 98.17318842027275 -118.63616771375725 -391.9527346304318
00000000: 3674 0b77 f587 6340 6659 9d00 69ac 6840
00000010: 4a24 c908 213d 6c40 9217 c8ba 56cf 6e40
00000020: c211 0a65 b373 6e40 d2b5 c5d5 8ddf 6540
00000030: c5bd 4d7c bd76 5bc0 3941 936a 1da6 81c0
00000040: 3cf4 9f57 976b 6840 9bac 8b9c 0b4f 6f40
00000050: 29bc 5d97 883d 7240 c633 98d7 d5a9 7440
00000060: a206 f43a 172b 7840 e30a c389 c5d0 7840
00000070: 113d 6093 23da 7440 346b 9e57 a401 5340
00000080: 2551 6a51 f39b 6240 19dd 523a 736e 6640
00000090: 119a cc85 1a7c 6a40 fc68 2680 fb60 6c40
000000a0: d327 7bc1 9742 6c40 2416 b208 6c95 6340
000000b0: e1d1 f95f bc62 63c0 17c2 4e58 3430 83c0
000000c0: 1ec3 320d a536 6840 3011 714c 8f7b 6e40
000000d0: 4e9c 0d3a 072c 7240 7aee a8ac b96d 7440
000000e0: ff0c 085b a37b 7840 fc58 5b92 7444 7940
000000f0: 106b 14e4 33eb 7340 c0b0 dd41 91d9 1a40
00000100: 7939 c4e5 1dfb 6940 05a4 8189 e141 7040
00000110: 8bfc 8e9f 94fb 7240 e291 f55c 21a0 7540
00000120: 6b03 d0e3 acbb 7940 9b93 ef3d 6fc7 7b40
00000130: 73d4 9b85 4867 7840 171f c8c4 dd62 5e40
00000140: 4c89 94fd 25ba 6240 4e52 367d 4b79 6640
00000150: 6ce3 ebf0 5ceb 6f40 cef8 e293 89b4 6e40
00000160: 55cc ebb2 4d8c 6540 aca5 1722 cc35 4240
00000170: 6c7b e7cf 82ed 77c0 7bd9 e0b5 31d8 8bc0
00000180: da3d edd1 3fcd 6140 60f8 9555 4162 6640
00000190: c4d3 cd29 0c01 6940 0cbf 2b84 4105 6a40
000001a0: 5ecf 30f3 e2d6 6940 761a 54bb bb78 6140
000001b0: c88d cc2f 68f2 66c0 f4cc 9502 3d9c 84c0
000001c0: 4ed5 8c82 c658 6640 2868 0f60 f640 6d40
000001d0: a6db d8f0 f8bd 7040 c271 8516 6c92 7240
000001e0: d069 9ae8 6a52 7340 5b96 e69b 5180 7140
000001f0: 568a 17e1 5ca0 5040 5fd8 b112 3d82 75c0
00000200: b780 8476 d47f 6840 a448 dcaa 6b7a 6e40
00000210: 62bc 1794 38b1 7140 c451 e006 1fa4 7340
00000220: 0428 1c29 73c1 7440 7fe8 2667 e6fe 7340
00000230: d49f 318e 5116 6940 e4cd bfee 864e 3140
00000240: a9d9 f41b 0e96 6140 249a c419 d7fc 6340
00000250: 5673 00ef 7460 6740 ca37 324a 2beb 6840
00000260: f2f1 1c28 c556 6640 0cca ce1f 1542 5040
00000270: d7be 417b a071 73c0 14f1 b986 a984 89c0
00000280: 603a 75d9 c833 6440 32c6 c719 df3b 6940
00000290: 9a99 c126 f8e2 6740 c8b0 652b 62e3 6a40
000002a0: 133c 849d 1fa7 6440 c077 d172 b65d 21c0
000002b0: 7607 1df1 a3ba 7ec0 85e4 446c f32e 90c0
000002c0: 3ebb 7bfb c02f 6740 5dc7 a7eb 6356 6c40
000002d0: d893 106f 6eb9 6f40 4211 4051 5435 7140
000002e0: 9aa7 d163 801d 7240 713d d658 0b07 6f40
000002f0: 8018 78d5 762f 0ec0 7014 e46e 3da8 7ac0
00000300: 4cee 7d75 305d 6140 0e48 095d f914 6540
00000310: d40c e7aa 48c4 6540 e0ab 1b39 20f5 6540
00000320: 2bef 3375 bf99 6140 3035 a048 ed20 2940
00000330: 93d9 d844 ee31 77c0 af2a 6ae4 5f6e 8ac0
00000340: cad7 1461 620d 6840 82c1 f883 79e5 6d40
00000350: 0009 9c83 2661 7140 cc19 318d 7d4a 7340
00000360: be99 0009 fb12 7540 bf41 7695 14e1 7340
00000370: 99d4 e6b8 6058 5e40 2262 5bd7 021b 71c0
00000380: 0f77 bf87 b374 6840 3be7 48eb d0ba 6d40
00000390: 2f0a 0b13 4c46 7140 011e 579a 300e 7340
000003a0: 5b38 44b6 00c8 7440 56f9 45d4 c1ea 7440
000003b0: 0890 9eff d800 7140 234d 7fea 3fe4 6440
000003c0: f85e 5a23 3b0b 5440 f6eb ddc8 ef02 5a40
000003d0: 7477 b6bd 79cf 5b40 0c4a e4ef 5f50 5940
000003e0: b066 29d1 3e9b 4a40 08da 6e0c ad5b 59c0
000003f0: f460 0e1e a570 81c0 91f9 2376 3dfe 90c0
00000400: 2fc7 41f1 9044 6740 5463 f1e5 9cda 6b40
00000410: 3c08 bbb2 eb89 7040 b8b6 bdc3 7267 7240
00000420: 48c1 35fb 4a8e 7240 fa85 0275 5d08 7040
00000430: 3e46 20c1 cd1a 5040 9603 922b fcf4 69c0
00000440: 2cc8 f222 1536 6640 9ad8 d39e 57ce 6940
00000450: fcf2 99a3 557f 6d40 3e71 eeb1 3df8 6e40
00000460: caf3 6917 e2c9 6c40 d28f 32a8 bce0 6540
00000470: fcd2 573f fa46 66c0 008d fdbb aca7 84c0
00000480: 5ad5 a395 c874 6440 2c7b a176 7327 6740
00000490: 849f 7d0a 870c 6840 5c2d 1255 f4de 6640
000004a0: 1658 b43b b50a 5c40 509d 3251 b90c 43c0
000004b0: ae58 4ba6 1d12 7cc0 2865 7617 2c3b 8ec0
000004c0: 5b0b 268a 9968 6940 2c3e a929 5087 7040
000004d0: dc0f 59c6 15d7 7340 2d91 709d 5ed9 7640
000004e0: f363 a0be 2a47 7c40 a061 b154 991e 8040
000004f0: 5d9c 4687 bd89 8140 260f aea6 885a 7b40
00000500: 185d 51b6 4557 6540 4a06 05f4 6fe2 6940
00000510: 28ba df4b 0517 6e40 671a 0e09 10ab 6e40
00000520: 9fd0 6c8a bf37 6840 3474 d0b3 dce7 5040
00000530: 8fb5 df99 5bd6 75c0 e1dc 30c3 e58f 8ac0
00000540: 758c 04db 1b7c 6840 fb26 69d8 c197 6d40
00000550: a5c3 3da9 c269 7140 8f85 cd0d b469 7340
00000560: 90cf 002f 3313 7540 c263 819c 0bb8 7340
00000570: 5186 d0df b693 5f40 0981 61f8 8a6a 70c0
00000580: e4ac 547d e256 6140 f614 5a1d 9726 6540
00000590: 2e50 7ae4 f329 6a40 d8e6 f521 c735 6c40
000005a0: ef47 a117 6307 6240 20f1 c68f 5dec 3bc0
000005b0: dc87 4c55 d11b 7ec0 3564 51c9 79bd 8fc0
000005c0: 0f41 5453 8774 6640 3e8a a9b8 3905 6c40
000005d0: 844a a76a 8b17 7040 a5e6 db12 d729 7240
000005e0: 4c9f 872f 0ef6 7340 869b 6d8f 783f 7440
000005f0: 9496 154e 2a56 7040 ec22 f126 fae6 6240
00000600: ec9f 5827 b8f5 6540 cc99 acd9 2e10 6b40
00000610: a18b a91d 5fe4 6e40 b214 88e0 a970 7040
00000620: e8c5 39e8 be9e 6c40 2885 15ce 903c 5e40
00000630: 260d 4837 4b73 70c0 7d8d d2bf a574 87c0
00000640: 7750 3aab bba5 6440 5278 8a09 1bdd 6940
00000650: f894 8ad9 a2d9 6d40 9a87 6668 fc5a 7040
00000660: 92da 1fb1 0fa4 6e40 ff48 eeec 5928 6840
00000670: 23c3 8ed9 cee2 59c0 65ff c95c 5857 81c0
00000680: 3d88 d051 4f38 6340 70df 93be f2ee 6a40
00000690: 5db9 b122 f754 6e40 9cf1 dc7d 1067 6e40
000006a0: 9c40 5296 66b7 6940 2c5b 9db3 47d8 5740
000006b0: 627d 08ac ccb3 72c0 087b d013 1719 89c0
000006c0: 1d36 c47d a11c 6440 e0b7 323f f0aa 6a40
000006d0: 0c7c 6d0b 3070 6d40 cfaa 58ab 5548 6f40
000006e0: fc36 e791 fffd 6b40 694e 97c0 8389 6140
000006f0: 7973 1520 3f74 6bc0 094a dce0 0d11 86c0
00000700: b464 9d42 366f 6540 e315 e5b6 a9ba 6940
00000710: 29e8 da11 d347 6d40 74fb f593 3994 7040
00000720: 68a9 6e8f daea 7040 5795 7d49 85c8 6a40
00000730: 7466 2972 61c4 52c0 cfb8 506e 8806 80c0
00000740: 600f 839f 98dc 6140 9180 b14f 7936 6640
00000750: 40da 9b37 230d 6940 697c ea28 2c59 6a40
00000760: 2cf7 9d56 7572 6a40 2c81 9c26 b24f 6240
00000770: 0bc5 4b32 f65b 62c0 dd5a 3e36 e8ea 82c0
00000780: 26e3 ceb7 332c 6340 4424 7a68 ad8e 6740
00000790: dc37 1c51 89f4 6a40 26ab 086e 9a99 6b40
000007a0: d6f9 b161 6fed 6740 6a13 ab32 b41a 5840
000007b0: e0ad 1d0f a663 70c0 112a 2a69 5ea5 87c0
000007c0: ce9e 0381 2ad0 6040 f9b3 88ac 289b 6440
000007d0: b493 d450 e908 6840 ba19 c362 8d69 6840
000007e0: 493f 1176 e094 6540 8347 e284 158b 5840
000007f0: f156 c9f8 b6a8 5dc0 8af7 aa66 3e7f 78c0
