results/2DRefactor/NLPD (Artificial Kernel).npy (npy, 3328 bytes, 1 tensors)

array f8 [50, 8]
0	0x406d8d5a4291bfa6	236.4172680708554
1	0xc064be96b1aff19e	-165.9558952747729
2	0xc066993cfa0b2cfc	-180.78869344885595
3	0xc0780359dd36060e	-384.2094394789027
4	0xc07da16d595e84ca	-474.0891965572488
5	0xc082580b1745c7c7	-587.0054154826729
6	0xc083e6acf66b5b23	-636.8344543826282
7	0xc083bcfb13d620ce	-631.622596428753
8	0x408034b3f8467591	518.5878758911732
9	0x40741ce258243f12	321.8052598396181
10	0x406a8c8028acb218	212.3906443951571
11	0x3ffe387ef955f1a8	1.8887929668118009
12	0xc0651282e4c16946	-168.57847821975355
13	0xc0729519cbc92dc8	-297.3187978609608
14	0xc076055c49a9f9f4	-352.33503118893645
15	0xc075d59fe5560075	-349.3515370711751
16	0x4069385d4b7d61ca	201.76138853539152
17	0xc02c2b552fc6dbd0	-14.084634297394501
18	0xc0600fb87b7990b0	-128.49126981490326
19	0xc06ddd22c1d646bb	-238.91049281931723
20	0xc077e5c20f3920e0	-382.3598777991847
21	0xc0834141f09fed8c	-616.1571972364777
22	0xc0836071bfddc272	-620.0555417370763
23	0xc08348c5b02d049e	-617.0965274350199
24	0x407bd2391762d145	445.138938318258
25	0x407320ee9cfff65a	306.0582551954773
26	0x40633b1886650be2	153.84674377189282
27	0x4043c3938b18bd2d	39.5279401655956
28	0xc070e9aef2792f25	-270.60521170938074
29	0xc07a8eaa4706bd1a	-424.91657164223
30	0xc0804391c0ca7d6e	-520.4461685008553
31	0xc0804dd70a499e3b	-521.7300000907338
32	0x407afbf94d0f3384	431.74836450517637
33	0x407332a1f49a1a70	307.1645399112376
34	0x4069b4ffb89d88ee	205.6562159611562
35	0x40523e3532b5bc92	72.9719969534656
36	0xc060c91b693c4099	-134.28459607856783
37	0xc0746adca993d8e2	-326.6788726592332
38	0xc077492c5bfc012d	-372.57332991065306
39	0xc07729a3427c91d7	-370.60235832843813
40	0x408273a85eb80f36	590.457211912121
41	0x407ca67840d1f00e	458.4043586922352
42	0xc081608cf046913e	-556.0688176644396
43	0xc08c6a9e66ceada9	-909.3273445269343
44	0xc092b3ff088145e9	-1196.9990558813972
45	0xc09039d5a92881c8	-1038.4586530999386
46	0xc08e39eabbc0b4d9	-967.2396159224692
47	0xc08e2b07817aad25	-965.3786649307336
48	0x4070f47f6ace4e76	271.2811077174041
49	0x405f7a9847602a67	125.91554436103034
50	0xc06804e35b474a56	-192.15275348590757
51	0xc0624fae880f302d	-146.49005511251872
52	0xc0812cb44ef707b0	-549.5880412387105
53	0xc07f9865a6cd675c	-505.5248172782501
54	0xc07e42b7558de29d	-484.1697593252555
55	0xc07dc91a499ea5fc	-476.56891786548636
56	0x406b7861dc07e4fe	219.76194573919196
57	0xbff326d91a42e640	-1.1969843889077225
58	0xc067b1293d6e5539	-189.5362841753902
59	0xc0760b96bf6a81c8	-352.72430364231377
60	0xc07f80a6c218e70d	-504.0407124493366
61	0xc0845872081892e3	-651.055679504378
62	0xc085c6cfde553cf3	-696.8514982852197
63	0xc085c082069f9e3b	-696.0634891958392
64	0x4071a24b8e020062	282.1434459760841
65	0x405b1362f5ec19cb	108.30291507775034
66	0xc041b3a7e905c7ad	-35.403561714002855
67	0xc06189784de44255	-140.2959355791269
68	0xc0730f9b8ab4d962	-304.97547407764625
69	0xc07718a64a254a55	-369.54059805456683
70	0xc0780caa71ab689e	-384.7916123099948
71	0xc07841c8f6a319dc	-388.11156333648046
72	0x407134942c611d54	275.28617513594986
73	0x40543cd1ffa181dc	80.95031729480928
74	0xc043446b85851ccc	-38.53453129768022
75	0xc07194204f7e15b7	-281.25788830997357
76	0xc082f6f7adcd9937	-606.8709369718916
77	0xc085323ef1c7771b	-678.2807345946525
78	0xc0854e1b86e77caa	-681.7634409031791
79	0xc0854364a93e4820	-680.424150930954
80	0x409732163c6289b9	1484.5217147251662
81	0x40a361bd3e8a10a8	2480.8696177621205
82	0x40b00e9330a08dcc	4110.574960741633
83	0x40b17dc8c91983aa	4477.784318537373
84	0x409ca148785e802a	1832.3207716718412
85	0x409e1c40c85ac100	1927.0632642917917
86	0x409e57cf660fd795	1941.952537772687
87	0x409e5ba936a16628	1942.9152474611856
88	0x407c97b2bd1b7f3c	457.48113737813014
89	0x4080a3b35987d258	532.4625731097285
90	0x407bf64bd4ca4201	447.3935134792992
91	0x4078e75c34ce1444	398.46001129626916
92	0x40647dd78eedfcff	163.93256327135165
93	0xc032b8332e3ffaf8	-18.719530954952432
94	0x403df82a8969588a	29.969399059504703
95	0x404715d890e3d972	46.17067156911334
96	0x407d159201b51ff4	465.34814615966684
97	0x407767369acac00e	374.45083121489813
98	0x408107fe62ac20ac	544.9992116401168
99	0x4073cf5c734f5008	316.9600709055089
100	0x408c5d98da680f80	907.6996353273134
101	0x409158cabb0bf77d	1110.1979791517072
102	0x409332a5d8313bac	1228.6619575207396
103	0x409363b80c52d743	1240.9297345107923
104	0x406b73874173c688	219.61026070225148
105	0x405a33a263222b44	104.8067863305742
106	0xc05315d7636f1f80	-76.34127126552448
107	0xc0679ad0355b1748	-188.8379160670395
108	0xc07b09c089078291	-432.60950568135837
109	0xc0805ebeccaa13d1	-523.8431638037965
110	0xc0815fa4e04bebaa	-555.955505936746
111	0xc08161df9c1e6025	-556.2341844914523
112	0x4070d24a62159602	269.143159946747
113	0x406687649c00998e	180.23103141896394
114	0x406147afd6b7e5ac	138.2402146903745
115	0x405b9191bed39cbf	110.27452059426558
116	0xc03eb44c76955930	-30.704291736089715
117	0xc054c7a55425d27f	-83.11946586316661
118	0xc05605245013947c	-88.08034135734664
119	0xc0551525628e7b46	-84.33040679849827
120	0x408fa1a1730403c1	1012.2038326562543
121	0x409609d2c1aa248d	1410.4558168968972
122	0x40a357101785e288	2475.531429466155
123	0x40a40e2633ce8ca2	2567.0746140047713
124	0x40953c5d2f7cf7e5	1359.0910014654448
125	0x4092d8e76445b578	1206.2259684459696
126	0x4092e9bd811add3c	1210.435062808755
127	0x4092f2795e6587ea	1212.6185241569715
128	0x406460979b021a56	163.01850653086393
129	0x40518a2404765a14	70.15844832952308
130	0xc06786625feadd28	-188.19950862762312
131	0xc079022393a1153a	-400.13368571208014
132	0xc0830818d724554d	-609.0121291006595
133	0xc08394c4510cbf90	-626.5958577152214
134	0xc083dfc883b7dd4a	-635.9729074825675
135	0xc08408cf04785632	-641.1010827447228
136	0x4021a4ad73d2d0a0	8.82163583706307
137	0xc0475d402c696fbc	-46.72852091930642
138	0x3ff5a27255971300	1.352159818970165
139	0xc0652d92a4c21294	-169.42415082840728
140	0xc07546219bfff14c	-340.3832054136044
141	0xc083c6802e84e78a	-632.8125887282524
142	0xc08381cba0dcf2cc	-624.2244279157253
143	0xc0836228056601ec	-620.2695415467583
144	0x406c4082c1f7cd8f	226.01596163176552
145	0x4082e93cf709a8f0	605.1547680620843
146	0x408297a4f94ddd70	594.955553634949
147	0x4081fec2ae243eff	575.8450587112164
148	0x408fe5bbe500dac4	1020.7167453829538
149	0x4092bf89b3430603	1199.8844728920383
150	0x40940abf51ee79dc	1282.686835981548
151	0x4094336455c96fee	1292.8479835009161
152	0x408236ea0e830fce	582.8642854918669
153	0x407b8dc1cb294e04	440.8598128903834
154	0x4075f0f283387f9a	351.05920717305855
155	0x40723359d2dd0435	291.2094296105818
156	0x406283a5f871425e	148.11401006813952
157	0x40477d28dc71ee7c	46.97780948222223
158	0xc04cf8f535677e37	-57.94498317292567
159	0xc05278f625568713	-73.89002355051007
160	0x408a91efb5b7d920	850.242045818628
161	0x407ec687b1ea0bd1	492.4081286566189
162	0xc00e89e533a55cc0	-3.817331698879201
163	0x40390ad628da7c58	25.042330315915336
164	0x40402192bd8c98ae	32.26229066243228
165	0x4039f3fab94f1c1c	25.953044492544095
166	0x4051c774f18db017	71.11651266895966
167	0x4053b0996f457be2	78.75936490808047
168	0x406c2df6d1bbd98c	225.43637930573857
169	0x403b7807ac93d8de	27.468867097945683
170	0xc04cc021888287b2	-57.5010233533243
171	0xc06c8071c275ad7e	-228.013886670913
172	0xc07d060297c33bb2	-464.37563301337207
173	0xc0801626b5cc1ae6	-514.7689014383038
174	0xc080553eef810809	-522.655730255182
175	0xc0804f7e6be4d625	-521.9367292287685
176	0x408ec9c2c7b6e528	985.2201074875529
177	0x4089ef2c19b84e42	829.8965334319003
178	0x4084ce6c6ffdc51f	665.8029479814321
179	0x40551156fa0dab80	84.27093364081338
180	0xc05d08f730386628	-116.14008718021125
181	0xc0185693ee4d4b00	-6.084548686473454
182	0x404e7bb3b8c31d98	60.966422171851434
183	0x405134e22a6ce8b8	68.82630406032229
184	0x40749846eebad722	329.5173175142719
185	0x4067d4014675a67e	190.62515566805445
186	0x4055601842215df4	85.50148061045167
187	0xc04db8962db031d0	-59.442083083183775
188	0xc06f20d1374d9a54	-249.02553906590276
189	0xc07a19128c9c16fd	-417.5670286271341
190	0xc07bba3b86e23739	-443.6395329319526
191	0xc07b77339979a998	-439.45009753727345
192	0x407827f8d7c98296	386.49825266566165
193	0xc0627d5fc2406eaa	-147.91793930611067
194	0xc075407f54562734	-340.031086288963
195	0xc08440e8b842c7e3	-648.1136326997042
196	0xc08b8df384fd6db0	-881.7439060019587
197	0xc08b564d9eba5264	-874.7879004055399
198	0xc08b192d5e87eede	-867.1471529598018
199	0xc08b0150c8c3fd92	-864.1644454299696
200	0x40728e6cc3ca5298	296.90155390770224
201	0xc034e48393dee9a8	-20.89263271515088
202	0xc063957854b89827	-156.67093883565505
203	0xc0735c96f10fc993	-309.7868509880729
204	0xc08419f13394de13	-643.2427741651794
205	0xc08c446ec5a29226	-904.5540878964282
206	0xc08c672c7791b921	-908.8967124352095
207	0xc08c584395c9a3a1	-907.0330005410252
208	0x40646f67b6f3f61a	163.4814104809637
209	0x3fe9546c6d445f00	0.7915556081888724
210	0xc0717a097617f2a6	-279.627309888407
211	0xc073aa8cace11781	-314.65934455801477
212	0xc073ecfe59338590	-318.81209678769756
213	0xc06992b54952aa20	-204.58462968964977
214	0xc0558abfba3093c1	-86.16795210594047
215	0xc052f45984a40d2e	-75.81796375294354
216	0x408379d4953da7e6	623.2288002793182
217	0x401c0310b5893470	7.0029934277527985
218	0xc06e5ffc6a4b979a	-242.9995624042902
219	0xc0803f28cd40e34c	-519.8949227399221
220	0xc083e47ba2347b2d	-636.5603679752436
221	0xc08662c1f9eb7d42	-716.3447149655915
222	0xc0865758294e67ff	-714.9180475354659
223	0xc0865702791e8f7a	-714.8762075793777
224	0x40674cd79655b1b2	186.40131680237897
225	0x402679eb50d430ee	11.238123441602934
226	0xc066606df388a8b4	-179.01342179003916
227	0xc07c56876337e142	-453.4080536063012
228	0xc0823c671a92a6a2	-583.5503436524489
229	0xc085ff75cdb3bf09	-703.9325212519335
230	0xc087b2a722f2b89d	-758.331609627017
231	0xc08756274581d724	-746.769175543192
232	0x40691fbca01ee2ce	200.9917755702249
233	0x406569860bb9b443	171.29761301298467
234	0xc03b529a506c7368	-27.322667147137878
235	0xc0572a6c6ba11da4	-92.66286745771373
236	0xc0737f5e001697e0	-311.96044930291646
237	0xc0702d1ae716d2f6	-258.81906804004336
238	0xc06cb389248d2db2	-229.61049106191564
239	0xc06c7531051a7998	-227.66223387881178
240	0x40697b7a3693b5b4	203.85866860246244
241	0x40654b5f038ff8f8	170.35534837836872
242	0xc0420cd05cbbfa04	-36.100108711038075
243	0xc05e5eb227a4aee4	-121.47962370951024
244	0xc02910cd857130f0	-12.53281800276497
245	0xc05c948e455faa46	-114.32118353216455
246	0xc013df032fbe9940	-4.967785593040674
247	0x401217dcb6abee40	4.523302892917457
248	0x406acece2dea2e16	214.4626683782414
249	0x40774233dc7b6b8d	372.1376614400004
250	0x406fd6ace27c33a0	254.70860409029137
251	0x406d2893c3593f0c	233.2680374854175
252	0x4062a49b848b1861	149.14398410002744
253	0x405daad9c52c3ce0	118.66954163856599
254	0x405aa6df03517734	106.60736163097027
255	0x405b6891edbcad7c	109.63390677857927
